Model: "sequential"
_________________________________________________________________
Layer (type)                 Output Shape              Param #   
=================================================================
vgg16 (Model)                (None, 3, 3, 512)         14714688  
_________________________________________________________________
global_average_pooling2d (Gl (None, 512)               0         
_________________________________________________________________
dense (Dense)                (None, 512)               262656    
_________________________________________________________________
dense_1 (Dense)              (None, 256)               131328    
_________________________________________________________________
dropout (Dropout)            (None, 256)               0         
_________________________________________________________________
dense_2 (Dense)              (None, 64)                16448     
_________________________________________________________________
batch_normalization (BatchNo (None, 64)                256       
_________________________________________________________________
dense_3 (Dense)              (None, 32)                2080      
_________________________________________________________________
dense_4 (Dense)              (None, 16)                528       
_________________________________________________________________
dense_5 (Dense)              (None, 7)                 119       
=================================================================
Total params: 15,128,103
Trainable params: 2,773,095
Non-trainable params: 12,355,008
_________________________________________________________________
[INFO] model compiled.
[INFO] starting training...
Epoch 1/50
921/921 [==============================] - 939s 1s/step - loss: 1.5495 - accuracy: 0.3958 - val_loss: 1.4087 - val_accuracy: 0.4533
…
