Model: "sequential"
_________________________________________________________________
Layer (type)                 Output Shape              Param #
=================================================================
vgg16 (Model)                (None, 3, 3, 512)         14714688
_________________________________________________________________
global_average_pooling2d (Gl (None, 512)               0
_________________________________________________________________
dense (Dense)                (None, 256)               131328
_________________________________________________________________
dropout (Dropout)            (None, 256)               0
_________________________________________________________________
dense_1 (Dense)              (None, 7)                 1799
=================================================================
Total params: 14,847,815
Trainable params: 2,492,935
Non-trainable params: 12,354,880
_________________________________________________________________
[INFO] model compiled.
[INFO] starting training...
Epoch 1/50
921/921 [==============================] - 927s 1s/step - loss: 1.5662 - accuracy: 0.3956 - val_loss: 1.3768 - val_accuracy: 0.4671
…
